best_DAG_Model.pth (torch, 185478 bytes, 20 tensors)

pathway1.0.weight f4 [128, 13]
000000 35 d4 1d be 5c be 46 3e 65 21 99 bd 8e 2d d1 3d
       -0.15412982 0.19408554 -0.074770726 0.10213767
000010 4e 51 c7 3d 6d 36 fd 3c 1f 86 30 3e ca a3 8b 3c
       0.097323045 0.030909741 0.17238663 0.017045874
000020 39 cb dc bd 33 b1 ac 3d 30 4b 0b 3e 99 2e 61 3e
       -0.10780949 0.084322356 0.136029 0.21990432
000030 c3 b3 e4 bd ca bd 5c be 3e 5e ac bd 3e 5d 51 be
       -0.11167099 -0.21556774 -0.08416413 -0.20445725
000040 1d 7f 14 3e 17 92 74 3e 19 e2 6e be 51 d1 5f be
       0.14501615 0.23883854 -0.23328437 -0.21857192
000050 8f 71 c6 bc 5f b0 6d be d0 6d 1e 3e e2 66 de 3b
       -0.02422407 -0.23211811 0.15471578 0.006787167
000060 69 5e 2d 3e 1a 2a 16 3e 46 20 9f bd fa 49 43 3d
       0.16930546 0.14664498 -0.077698275 0.04767797
000070 06 32 67 bc a8 00 24 3e 24 d0 8c bd 80 96 2d be
       -0.014111048 0.16015875 -0.06875637 -0.16951942
000080 f0 98 2d bd 11 21 6c be fe b0 04 3e 63 f2 0b bd
       -0.04238218 -0.23059489 0.12958142 -0.034166705
000090 6c 0f 65 be af 00 03 bd 76 83 00 3e 2d 48 91 bd
       -0.22369164 -0.031983074 0.12550148 -0.070938446
0000a0 e0 44 15 3e 8b 2d 8c be 05 93 6f be 04 1a 0d bd
       0.14577055 -0.27378497 -0.23395927 -0.03444864
0000b0 ca 2d 84 be b8 79 90 3e a5 bf 58 3d 9e 48 2a 3e
       -0.25816184 0.28217864 0.05291714 0.16629264
0000c0 22 80 bf 3d e2 7f 18 3d ec 9e 0a 3e c9 49 fc 3b
       0.09350611 0.037231334 0.13537186 0.0076992256
0000d0 ba 13 57 be fa 84 52 be f1 9c 07 3e 0a 34 ed 3d
       -0.21003619 -0.20558539 0.13243462 0.11582191
0000e0 61 09 8b bc bb ef 98 3b be 99 66 3e d2 d1 65 be
       -0.016972246 0.00466725 0.22519585 -0.22443321
0000f0 17 48 f1 bd 84 07 0c be ca 1f 82 3e d3 94 d5 bc
       -0.11781328 -0.13674742 0.25414878 -0.026071941
000100 75 9b 7e bd 9b e6 83 be 44 4e a2 3d d2 ae 0a 3e
       -0.062159974 -0.25761876 0.07925084 0.13543251
000110 06 46 c0 3d 5b 03 29 3e 07 84 1b 3e 3b a1 ae 3c
       0.09388356 0.16505186 0.15187083 0.021317115
000120 5b 4a fd 3b ce cd 49 3e b9 7c 81 3e 0f 0d 03 be
       0.007729811 0.19707415 0.25290468 -0.1279795
000130 2e 92 62 be 93 3e 8f 3e 9e 52 a1 3c 3d a1 74 be
       -0.22126076 0.27977428 0.019692715 -0.23889633
000140 ec 6f 8a be 2b 62 2f be c0 7a 56 be ed 7d 4c be
       -0.27038515 -0.17127292 -0.20945263 -0.19969912
000150 15 bd 59 3e ba 02 86 be aa 86 00 3e 99 3a 91 bd
       0.21263535 -0.26173955 0.1255137 -0.07091255
000160 97 1d 5c be 61 74 0b 3e ca fd c4 bd 8b 58 41 be
       -0.21495663 0.13618614 -0.09618719 -0.18881433
000170 8c 1d 06 bd 14 a1 61 3e be 1f b8 bb c7 c3 02 be
       -0.03274302 0.22034103 -0.0056190183 -0.12769996
000180 12 b3 40 be 21 3a 0f 3e b7 ad 56 3e 78 79 08 be
       -0.1881831 0.13987018 0.20964704 -0.13327587
000190 28 72 d2 3c ab e2 3c 3e 75 93 37 be ac 88 bd 3c
       0.0256892 0.18445842 -0.17927344 0.02313646
0001a0 87 33 60 3d fc 78 e6 3d cc 0a c1 bd 41 9b 18 3e
       0.05473664 0.11253545 -0.094258875 0.14902975
0001b0 5c 5f 1f 3e 96 c3 46 be cd e8 9e bd a8 34 6d be
       0.1556372 -0.19410548 -0.07759247 -0.23164618
0001c0 45 4b 36 be 41 6b 12 bd 80 ab 70 bd 5c 1b 45 3e
       -0.1780215 -0.035746817 -0.058757305 0.19248718
0001d0 c3 26 56 3d 17 11 03 bb 61 35 c4 bd 14 84 2f be
       0.05228306 -0.00199992 -0.09580494 -0.17140228
0001e0 b1 1b 08 3e df 7d 1b be 33 00 91 3e bc 9f 86 be
       0.13291813 -0.15184735 0.28320464 -0.26293743
0001f0 2e 89 95 bd 58 02 46 be b5 9d 1c 3e 13 bd 57 3e
       -0.073015556 -0.19336832 0.15294535 0.2106822
000200 d6 98 83 3c f2 fb 0d 3e 55 f7 80 bd 22 54 0c 3e
       0.016064089 0.13865641 -0.06297175 0.13703969
000210 b8 13 91 3e 74 09 3c be 9b 32 56 3d 9a 4d 9f bd
       0.28335357 -0.18362981 0.052294355 -0.07778473
000220 63 2b 48 3e 65 d9 77 3e 28 78 7d be 54 80 f9 bd
       0.195478 0.24204023 -0.24752867 -0.1218268
000230 64 06 21 be 8f 9d ab 3d 28 ac 89 be bd ef dc bd
       -0.15725094 0.08379661 -0.26889157 -0.10787914
000240 8c fe 83 3e 00 19 0a 3e 29 51 ed 3d 4c 16 75 be
       0.2578014 0.13486099 0.11587746 -0.23934287
000250 d0 da 8b be 5d 32 8f be 7a cc 13 3d b4 2f 1a bd
       -0.27315378 -0.27968112 0.036083676 -0.03764315
000260 8c 51 09 3e 04 7d 27 bd e0 70 a2 bd d7 46 5f 3e
       0.13410014 -0.04089071 -0.079316854 0.21804367
000270 6a 05 ed bb f7 80 88 be bc 8d d9 bd 4e 1a d2 bd
       -0.0072333114 -0.26660892 -0.10622737 -0.102589235
000280 d7 e3 5c 3e 07 a6 8a be 73 88 4d bb 36 5d cf 3c
       0.21571289 -0.27079794 -0.0031361848 0.025313001
000290 0d 2b 74 3e b8 5a bc 3d a9 63 03 be 05 c6 55 3e
       0.23844548 0.09196991 -0.12830986 0.2087632
0002a0 70 ff 66 3e 0c 88 59 3e 53 ac 55 be 9a fd c3 3d
       0.22558379 0.21243304 -0.20866518 0.09569855
0002b0 c8 af fd 3d b6 ac 6b 3e 71 aa 5a be 12 16 d8 bd
       0.12387043 0.23015103 -0.2135408 -0.105510846
0002c0 dc 37 56 bb 0a 1a 26 bd 4c f7 6f be 95 a0 80 be
       -0.0032687103 -0.040552177 -0.2343418 -0.25122514
0002d0 90 d9 dd 3c b9 86 10 3e e9 79 8d 3c 63 fa 10 3e
       0.027081281 0.14113893 0.017270045 0.14158015
0002e0 0e 90 db bd e5 57 d7 bd 41 4e 07 3e 64 e5 0d be
       -0.107208356 -0.105148114 0.13213445 -0.13857037
0002f0 97 0b 71 3e 2f 71 82 be 21 9a 2a bd ee e0 47 3e
       0.23539577 -0.25476977 -0.041650895 0.19519398
000300 b1 8f 23 be a2 3a 74 3e 0b 22 48 3e ad 9f 1e 3c
       -0.15972783 0.23850492 0.19544236 0.009681624
000310 a6 e6 de 3d 38 cc d5 bb 63 d9 f7 3d 71 df 8e be
       0.108838364 -0.006524589 0.1210201 -0.27904847
000320 f1 dc 5b 3c 3b ea f4 bd 7e b5 33 be cc 5b db bd
       0.013419376 -0.119587384 -0.17549703 -0.10710868
000330 b0 c6 76 3e 39 cf 81 3e 92 10 0c 3d 88 4c 3e 3e
       0.24099231 0.2535341 0.03419549 0.18583882
000340 a1 68 1f be 84 01 18 bd a6 96 1d bb 0c 39 84 3d
       -0.15567257 -0.03711082 -0.0024046092 0.06456193
000350 b2 b6 b6 bd cb d7 04 3e 16 af 98 bd d4 d5 c9 bd
       -0.08921565 0.12972943 -0.0745527 -0.098552376
000360 62 8f 33 3d ca cc 0d be b5 97 29 bd db 84 07 be
       0.043837912 -0.13847652 -0.041404445 -0.13234274
000370 6d f5 6e be 4c 92 7a 3e a6 b9 bd bd 31 30 3d bd
       -0.2333581 0.2446987 -0.09263925 -0.046188537
000380 7d 4d 82 be 13 de e9 bd 7d 2b 61 be fc 16 81 3d
       -0.25449744 -0.114193104 -0.21989246 0.06303212
000390 d3 0f a1 3d d6 3b 34 3e 5f 05 0b be 19 a6 fa bc
       0.07864346 0.1760095 -0.13576268 -0.03059678
0003a0 a5 66 3d 3e 85 2f c7 3d 64 c4 8b be 09 bd bf bc
       0.18496187 0.097258605 -0.27298272 -0.023405569
0003b0 c4 c5 5f bc 2d 89 ca bd 10 df ff bd 47 b3 79 3e
       -0.013657991 -0.098894455 -0.12493718 0.24384795
0003c0 4e ae 38 3e 46 25 f5 bd b1 7b 11 bd dc 10 8f bd
       0.18035242 -0.1197 -0.035518352 -0.069856375
0003d0 bf 84 09 be 19 a9 ba 3c 3e f6 74 3d 26 4c 64 3e
       -0.13429545 0.02278571 0.059805147 0.22294673
0003e0 b9 57 5f be cc c0 ae bd 9a 1a 6a be 8d ae 33 be
       -0.21810807 -0.08532867 -0.2286171 -0.17547055
0003f0 83 6a 20 be 1d fb 01 3e 73 ea 1e 3e 7c 84 1e be
       -0.15665631 0.12693448 0.15519123 -0.15480226

pathway1.0.bias f4 [128]
000000 d4 72 5f be 69 3e bd bb df 76 17 3e 72 8c 2b 3c
       -0.21821147 -0.005775262 0.1479144 0.0104704965
000010 5a 8e 62 3e 08 ec 18 3e 29 89 ef 3c 89 03 39 3e
       0.22124615 0.14933789 0.029240208 0.18067755
000020 42 ce b8 bd 29 5a 8d bb d0 63 2b be ef 74 50 3e
       -0.090237156 -0.0043137264 -0.16737294 0.20357107
000030 d0 bb 84 bd 33 eb 41 bd c3 aa 29 3e dc 8f 91 bd
       -0.06481135 -0.047343444 0.16569047 -0.07107517
000040 a3 62 31 3e da f9 4d be cd 69 6b 3e ae 2e b5 bc
       0.17322783 -0.20114842 0.22989579 -0.022116985
000050 5d f1 89 3e 1a 18 15 3d bf ff 62 be a6 2f da 3d
       0.26941958 0.03639994 -0.22167872 0.106536195
000060 ba 97 0c be bc 60 a7 bd 12 7a af bc ee ad 80 3e
       -0.13729754 -0.081727475 -0.021420512 0.25132698
000070 e3 a4 ce bd 72 89 31 3e 41 29 e3 3d ce 81 23 be
       -0.100900434 0.17337587 0.11091853 -0.15967485
000080 ae 32 69 3e 00 f5 35 3e eb 32 85 be a7 63 60 be
       0.22773239 0.17769241 -0.2601541 -0.21913014
000090 45 10 b7 bd 8b 16 ca bd 17 c3 2f 3d 7e aa 85 bd
       -0.0893865 -0.09867581 0.04291066 -0.065266594
0000a0 25 c6 81 3d 77 24 d6 bd a9 5f bb bd d9 ec 22 be
       0.06336621 -0.10456174 -0.09149105 -0.15910663
0000b0 63 92 2d be 1b 03 8e be 59 bc 8e 3c b9 86 c2 3d
       -0.16950373 -0.27736744 0.017423796 0.094983526
0000c0 f1 9e 19 bd 2f a5 71 bc 55 0b 86 bb 39 cc 43 3e
       -0.037505094 -0.0147488555 -0.0040907064 0.19120874
0000d0 18 5a 94 3e b0 95 52 be 07 2d 84 be 19 91 31 3e
       0.28974986 -0.20564914 -0.25815603 0.17340507
0000e0 79 ab 6c be bb 36 c6 bc 9f 4b c6 3d 52 32 40 3e
       -0.23112287 -0.02419602 0.09682392 0.18769196
0000f0 63 f4 82 be fa 82 c1 bd 85 e5 25 bd 62 d9 f6 bd
       -0.25577077 -0.0944881 -0.04050209 -0.12053181
000100 5b 68 79 be d9 d9 84 3e 5e 72 f6 3d fb f4 3a 3e
       -0.24356215 0.25947455 0.120335326 0.18257515
000110 29 e7 ac 3d db 9d 18 be 51 9f ef bd 1a ac 3b be
       0.08442528 -0.14903967 -0.11700309 -0.1832737
000120 93 7e ae bc df 7b 50 3e 26 18 38 be f9 33 0c be
       -0.02130059 0.20359753 -0.17977962 -0.13691701
000130 61 72 6b bd 5e b6 72 be fc 2d 8c bc 51 50 f2 bd
       -0.057482127 -0.2370238 -0.01711177 -0.118317254
000140 c5 fc 39 3e af 36 89 3d 81 47 da bd 69 cb d5 bc
       0.1816283 0.06699883 -0.106581695 -0.02609797
000150 82 ee 15 3c 32 88 6f 3e 1a 1b 64 3e 87 ed 5f be
       0.009151103 0.23391798 0.22275963 -0.21867953
000160 fe 69 2f be e6 30 3e be 79 1b 88 3b 2e bf 68 bc
       -0.17130277 -0.18573341 0.0041536656 -0.014205737
000170 92 37 7a be 1c 07 7c 3e 52 52 82 be d5 aa fa bc
       -0.24435261 0.24612087 -0.2545343 -0.030599037
000180 8d 00 5c 3e 8d 4b 30 bb 80 88 00 3e 8f 3c aa bd
       0.21484585 -0.00269005 0.1255207 -0.08312332
000190 b7 bc 1b 3c 15 2d 1d be dc 4c 3a 3e 88 50 22 3d
       0.009505442 -0.15349229 0.18193382 0.03962758
0001a0 38 91 cd 3d 1d 1a a9 3d 2e bb a6 bd cb c1 3f be
       0.10037464 0.08256934 -0.081411704 -0.1872627
0001b0 40 b2 3e 3e 6e c2 21 3e 5b a6 be 3d 0f 2c 9e bd
       0.18622684 0.15796825 0.093090735 -0.07723247
0001c0 b2 8d 80 be d7 7f 36 be a0 7e 8c 3d fd 0f 4c be
       -0.25108105 -0.17822205 0.06860089 -0.19927974
0001d0 8a e3 87 be 4c cc ed bd 0f 3b cb 3b 02 d5 ee bd
       -0.26540786 -0.11611232 0.0062021087 -0.11661722
0001e0 75 17 d9 3c be a6 41 be f9 16 30 be 1a 94 28 be
       0.026500443 -0.18911263 -0.17196263 -0.16462746
0001f0 6a 80 5e 3e d7 4f 2b be df 3d 00 3e 35 43 22 3e
       0.21728674 -0.16729675 0.12523602 0.1584595

pathway1.2.weight f4 [128]
000000 32 84 7f 3f f7 bd 80 3f 08 4b 81 3f f4 a2 83 3f
       0.9981109 1.0057973 1.0101023 1.0284104
000010 1f 86 81 3f df 83 7f 3f 8b 04 83 3f 40 1c 80 3f
       1.0119056 0.99810594 1.0235761 1.0008621
000020 1d 62 7d 3f 7d eb 80 3f 0d 5e 7f 3f f1 bc 81 3f
       0.98977834 1.0071865 0.99752885 1.0135785
000030 c8 3c 7d 3f 7e 13 81 3f 3a 0c 84 3f 41 34 7e 3f
       0.9892087 1.0084074 1.0316231 0.99298483
000040 bb 14 80 3f c0 db 80 3f 7c 19 83 3f 14 38 83 3f
       1.0006326 1.0067062 1.0242152 1.0251489
000050 48 63 7d 3f 35 d3 7f 3f 5d 6a 7e 3f 7b 51 82 3f
       0.98979616 0.9993165 0.9938105 1.0181116
000060 5c fe 81 3f 1f 6c 80 3f 05 dc 7e 3f 3f d1 7d 3f
       1.0155749 1.0032996 0.99554473 0.9914741
000070 55 62 81 3f 6d 4d 7f 3f 33 d8 81 3f 80 69 7f 3f
       1.0108134 0.9972752 1.0144104 0.99770355
000080 a9 4b 80 3f 13 a9 80 3f 3b ed 7e 3f de 5d 84 3f
       1.002309 1.0051597 0.99580735 1.0341146
000090 33 96 80 3f e4 76 80 3f bf 0e 81 3f 32 4b 80 3f
       1.0045837 1.0036283 1.0082625 1.0022948
0000a0 78 a4 7f 3f e9 c1 7e 3f 49 92 80 3f b8 08 81 3f
       0.99860334 0.99514633 1.0044643 1.0080786
0000b0 bb b7 81 3f ff 45 7c 3f ea 26 81 3f 90 15 82 3f
       1.0134195 0.98544306 1.0090001 1.016283
0000c0 f7 d6 81 3f 2d 81 80 3f 9e 0f 80 3f eb 61 81 3f
       1.0143727 1.0039421 1.0004766 1.0108007
0000d0 99 0a 83 3f c0 f1 82 3f 18 b7 81 3f a9 5e 7f 3f
       1.0237609 1.0230026 1.0134001 0.99753815
0000e0 55 0b 80 3f 9d 44 7f 3f cc b1 82 3f 7b 68 7b 3f
       1.0003458 0.9971407 1.0210509 0.982063
0000f0 f9 63 7f 3f d3 6d 83 3f a5 3a 80 3f 7e ab 7b 3f
       0.9976192 1.0267891 1.0017897 0.9830855
000100 96 5c 82 3f 1d dd 7c 3f f6 03 7f 3f ba 4c 81 3f
       1.0184505 0.9877489 0.9961542 1.010154
000110 a9 d2 81 3f 67 e0 7e 3f 4e ec 83 3f d6 30 83 3f
       1.0142413 0.9956116 1.030649 1.0249279
000120 0b a0 80 3f ae 48 7d 3f e6 2a 80 3f 40 b1 7c 3f
       1.0048841 0.98939025 1.0013092 0.9870796
000130 53 e0 81 3f b0 5d 7c 3f db 08 84 3f 35 c0 81 3f
       1.0146583 0.98580456 1.0315202 1.0136782
000140 e6 d3 7f 3f 82 4c 82 3f 65 a6 80 3f 4e 31 7e 3f
       0.99932706 1.0179598 1.005078 0.99293983
000150 c4 ac 81 3f fa d0 81 3f 6c e9 7f 3f ff f3 85 3f
       1.0130849 1.01419 0.9996555 1.0465087
000160 3f e6 80 3f 99 ed 80 3f 00 26 80 3f 05 9c 82 3f
       1.0070266 1.0072509 1.0011597 1.0203863
000170 e1 e3 81 3f 14 ec 7f 3f e6 72 7c 3f 24 e3 80 3f
       1.0147668 0.999696 0.9861282 1.0069318
000180 ca 42 80 3f 01 d9 7f 3f 33 3c 7e 3f c0 4e 7f 3f
       1.0020382 0.99940497 0.99310607 0.9972954
000190 2c f5 7f 3f 83 09 80 3f 86 b1 80 3f e6 dd 80 3f
       0.9998348 1.0002903 1.0054176 1.0067718
0001a0 e8 c3 7f 3f fe 04 7d 3f 2b ba 80 3f 17 35 81 3f
       0.99908304 0.9883574 1.0056814 1.0094327
0001b0 b7 f4 7a 3f 3e 90 81 3f b8 32 82 3f 52 8f 80 3f
       0.98029655 1.0122144 1.0171728 1.0043738
0001c0 76 21 82 3f 10 bf 80 3f 0f d4 80 3f 2e e4 81 3f
       1.0166461 1.0058308 1.0064715 1.014776
0001d0 d7 3e 80 3f 46 ce 81 3f 77 78 7b 3f 29 61 81 3f
       1.0019177 1.0141075 0.9823069 1.0107776
0001e0 2b df 7f 3f ab fb 81 3f 89 4b 83 3f c3 f3 83 3f
       0.999499 1.0154928 1.0257427 1.0308765
0001f0 2a 2b 7e 3f 98 3a 7f 3f 9b cb 83 3f 07 fb 80 3f
       0.99284613 0.9969878 1.029651 1.0076607

pathway1.2.bias f4 [128]
000000 3f 3e 06 3b bd 08 33 bb f1 91 91 3c 1e 8d a1 3a
       0.002048388 -0.002731844 0.017769786 0.0012325381
000010 bb 64 bc 3a 39 da f3 3a 82 e1 08 3b 97 ce 5b 3c
       0.0014373282 0.0018604464 0.0020886366 0.013415954
000020 52 f4 14 bc 1d d8 ce bc d3 b8 80 bc 22 e4 80 ba
       -0.009091454 -0.025249535 -0.015713131 -0.0009833614
000030 e3 cd 90 bc 67 d0 ba 3c bd 1d 59 3c b2 e9 4c bc
       -0.0176763 0.022804452 0.013251719 -0.012506889
000040 1b bb 59 bb c3 39 3f 3c 05 09 d7 bb 1c 9c 34 3c
       -0.0033223096 0.011671486 -0.0065623545 0.0110235475
000050 08 34 6f bb b2 ec 91 3b 09 f2 a7 bc bc 7f e1 bb
       -0.003649952 0.004453265 -0.020501154 -0.006881682
000060 c9 8e 9a bb 86 54 d4 3a 50 09 a3 bc 4a da e8 3b
       -0.0047167283 0.0016199506 -0.019901901 0.0071061
000070 4c 29 3f 3c 2e d4 eb bc 83 be 05 bc 58 d5 be bc
       0.011667561 -0.028787699 -0.008163097 -0.02329509
000080 60 a7 29 3c c1 36 35 3c 7a ae f0 bb 2f e1 d9 3a
       0.010354847 0.011060418 -0.007345018 0.0016622896
000090 25 7b 1e bc 3d c9 9f bb 20 f4 a4 3c c1 b4 bb 3b
       -0.009672915 -0.0048762844 0.02013594 0.0057283347
0000a0 ba 68 3f 3c 11 c4 96 3a cc 21 09 bc 7a 87 22 3c
       0.011682684 0.0011502524 -0.008369874 0.009919995
0000b0 39 fb 0f 3c dc 64 36 bc 7a a7 05 3b 3e a4 20 3b
       0.0087879235 -0.011132445 0.0020394013 0.0024511958
0000c0 84 e3 a3 bc 98 49 9e 3b 4b 65 8c bc 4a ce 02 3b
       -0.020005949 0.0048305504 -0.017138144 0.0019959384
0000d0 b6 b9 1b 3c e8 0a ca bb 75 f0 64 3c 5b d6 c6 bb
       0.009504726 -0.006165851 0.013973345 -0.0060680336
0000e0 9f 9f 45 bc b8 5c 55 bc d6 30 b3 b9 56 9a ec 3b
       -0.012061982 -0.013022594 -0.00034177926 0.0072205467
0000f0 3a 77 2d 3c a5 e6 15 39 38 db a5 bc 5c e7 83 3c
       0.010587508 0.00014295669 -0.020246133 0.016101532
000100 03 92 c0 bc 56 f8 18 bc dc 42 79 3c 62 ba a2 bc
       -0.023507124 -0.009336552 0.015213694 -0.019864265
000110 82 22 32 3c d0 a5 f0 bb 39 3f 90 bc a4 47 c2 3c
       0.010872485 -0.007343985 -0.017608272 0.023715802
000120 36 1c 2e bc 37 77 82 3b 18 5e 08 bc c9 e4 b4 3a
       -0.010626843 0.0039814967 -0.008323215 0.0013801093
000130 2e 87 de bc c6 02 33 ba bd 3b 1a bc 50 65 ec bb
       -0.027164068 -0.00068287214 -0.009413657 -0.007214226
000140 ef 98 3b bc 3f d9 ab 3c e8 62 8b bb 95 3c 75 bb
       -0.011450036 0.020977614 -0.004253734 -0.0037420143
000150 5e 81 76 3c 9f a8 4e bc ee 87 c1 bc 3f 81 89 3c
       0.015045492 -0.012613445 -0.023624387 0.016785262
000160 55 1c 89 bc 69 41 b9 bc 15 27 46 bb f3 e3 5a 3c
       -0.016737143 -0.022614198 -0.0030235697 0.013360011
000170 c5 79 f9 bb ff 84 79 bc 5d 1b 95 3c 31 f5 d8 3c
       -0.007613393 -0.015229463 0.018201524 0.026484104
000180 6e fe 92 3c 9e 8a d2 3b 29 9e 1b bc 67 9d 1e 3b
       0.017943587 0.006425216 -0.009498158 0.0024202706
000190 a0 80 40 3c fe b8 07 bc df ab 72 3c 40 6b cc bb
       0.011749417 -0.008283852 0.014811485 -0.006238371
0001a0 8d fc 6b 3b 0e 7f 8a 3a cd 53 6f bc ae f0 5a bc
       0.0036008686 0.001056643 -0.014607382 -0.013363047
0001b0 68 59 85 bc 3f c0 e7 bb 46 63 9f 3b cb 5e 60 bb
       -0.016277984 -0.007072478 0.0048641292 -0.0034236189
0001c0 d7 d9 87 bc 7e c0 f7 bb 01 64 81 3c 02 34 82 3c
       -0.016583366 -0.0075607887 0.015794756 0.01589394
0001d0 83 23 12 bc d8 05 d5 bb b5 69 d7 bb 5b bf b4 bb
       -0.0089195995 -0.006500941 -0.0065738806 -0.0055159754
0001e0 30 df 2c 3c d3 b3 61 3b 6e 9a b2 bc bc 3f 44 bc
       0.010551259 0.003443946 -0.021802153 -0.011978086
0001f0 ff 66 5d 3b fc b4 b3 3c c9 79 47 3b ba 18 e1 bb
       0.0033783314 0.021936886 0.003043758 -0.0068694027

pathway1.2.running_mean f4 [128]
000000 8d e7 83 3d 42 cc 7e 3e 11 69 7f 3e d2 a9 63 3e
       0.06440649 0.24882606 0.24942423 0.2223275
000010 af 01 b1 3e f7 1e a5 3e 21 48 ac 3e d5 76 a5 3e
       0.34571597 0.32250187 0.3364878 0.32317224
000020 85 7a 11 3e bf 19 51 3e c0 d5 2c 3e bd 66 b0 3e
       0.14206894 0.20419978 0.16878414 0.34453383
000030 7d 04 8e 3e 46 f8 55 3e b8 2f b0 3e fa d0 1d 3e
       0.277378 0.2089549 0.34411407 0.1541175
000040 43 a0 86 3e e0 16 3b 3e 57 dc ac 3e 9e 7f 4b 3e
       0.26294145 0.18270445 0.33761856 0.19872901
000050 3c 23 cf 3e df 6c 25 3e cd 33 05 3e fe fc 9c 3e
       0.4045657 0.16154812 0.13008042 0.30661768
000060 98 6f 84 3e 3d b5 36 3e de 06 30 3e ef d5 ad 3e
       0.2586639 0.17842574 0.1719012 0.3395228
000070 66 58 43 3e c4 1b a3 3e 85 95 70 3e 3a 06 07 3e
       0.1907669 0.3185712 0.23494537 0.13185969
000080 27 c9 ce 3e ff 7c c8 3e 73 8c ed 3d 92 08 e3 3d
       0.40387842 0.39157864 0.11599054 0.11085619
000090 54 13 2f 3e 52 a3 6b 3e 5b de 8f 3e 4e cd 23 3e
       0.17097217 0.2301152 0.2809933 0.15996286
0000a0 a3 08 86 3e a7 9a 08 3e 3f 31 53 3e 0d e4 90 3d
       0.26178464 0.13340245 0.20624255 0.07074747
0000b0 28 48 95 3e 3a 0f c4 3d 7f ec 59 3e 59 41 9a 3e
       0.29156613 0.09573217 0.21281622 0.3012798
0000c0 0b ae 13 3e 43 05 46 3e 80 14 43 3e c1 57 a7 3e
       0.14421861 0.19337945 0.19050789 0.32684138
0000d0 86 97 ee 3e d6 65 25 3e 68 9f 4a 3e 74 b9 a6 3e
       0.46599978 0.16152129 0.19787371 0.32563365
0000e0 9b db f7 3d d2 91 8f 3e a9 d0 75 3e a2 fc 97 3e
       0.12102433 0.2804094 0.24005379 0.2968493
0000f0 a8 e0 02 3e 04 3f 4e 3e 06 eb 51 3e a2 8d 1a 3e
       0.12781012 0.20141226 0.2049981 0.15093091
000100 9f 67 f3 3d 71 03 d6 3e bf c2 b5 3e 93 59 af 3e
       0.118849985 0.417995 0.35500142 0.34248027
000110 52 71 aa 3e 6d 2a f7 3d 42 ea 04 3e 81 8d e8 3d
       0.33289582 0.12068639 0.12979987 0.11355115
000120 72 9b 55 3e 8e 0f e4 3e 5f d8 df 3d c0 a9 ec 3d
       0.20860079 0.44543117 0.109299414 0.11555815
000130 3d 72 8e 3e 35 a9 d8 3d 73 4d 35 3e 18 d9 ff 3d
       0.27821532 0.10579149 0.17705326 0.12492579
000140 24 9e 98 3e 47 d2 86 3e 44 e4 f1 3d b6 84 70 3e
       0.29808152 0.26332304 0.11811116 0.23488125
000150 d7 46 72 3e 22 96 b6 3e f8 70 b0 3e b7 f2 00 3e
       0.23659836 0.35661417 0.34461188 0.12592588
000160 98 fd 5d 3e 5f ad 27 3e 79 3d 47 3e b1 63 5a 3e
       0.2167877 0.1637473 0.19457044 0.21327092
000170 b2 37 02 3e e4 ff b6 3e 14 3a 26 3e a5 95 86 3e
       0.12716559 0.35742104 0.16233093 0.26286045
000180 cd 81 a5 3e 65 ab 4c 3e d3 11 8c 3e f8 5c 6e 3e
       0.32325593 0.19987257 0.2735735 0.23277652
000190 26 eb 85 3e 7f 1a f8 3d 1b ba 90 3e a8 fb 67 3e
       0.26155967 0.12114429 0.28266987 0.22654593
0001a0 04 bc 7e 3e 8b 65 a8 3e bd a0 39 3e 2e 24 21 3e
       0.2487641 0.3288997 0.18127723 0.15736458
0001b0 7a 0a bc 3e 56 17 a3 3e af b6 9a 3e 56 5f 31 3e
       0.36726743 0.3185374 0.30217502 0.17321524
0001c0 5b ce 48 3e 57 eb 31 3e 25 e8 8b 3e e2 c4 0e 3e
       0.19609968 0.17374931 0.2732555 0.13942292
0001d0 89 35 da 3d 68 b5 c8 3d 47 9c 42 3e 70 47 4a 3e
       0.10654742 0.098002255 0.19004928 0.19753814
0001e0 5d 59 54 3e f3 68 4c 3e ff 70 1f 3e 3f ea 4a 3e
       0.20737214 0.1996191 0.15570448 0.1981592
0001f0 a5 3d c4 3e 7b 99 6e 3e 5d 2c 8d 3e 49 9e 8f 3e
       0.3832828 0.23300736 0.2757291 0.2805045

pathway1.2.running_var f4 [128]
000000 31 2b 9e 3c 21 2f 09 3e 71 fa c2 3d 40 83 ce 3d
       0.019307705 0.13396885 0.09520424 0.10083628
000010 18 07 20 3e 36 bc 10 3e ab 96 8d 3e bb c3 18 3e
       0.15627706 0.14134297 0.27654013 0.14918415
000020 d6 5d 8d 3d 86 ef d2 3d f7 37 bb 3d 34 54 3e 3e
       0.069026634 0.10299592 0.09141534 0.18586808
000030 84 21 28 3e 23 07 dd 3d 92 8d 4a 3e 77 22 a6 3d
       0.16419035 0.10792377 0.19780567 0.081120424
000040 fa 1b c3 3d 6a a7 e3 3d cf f4 18 3e b6 38 d0 3d
       0.095268205 0.11115916 0.14937137 0.10167067
000050 74 30 2a 3e da f7 50 3d c9 8c 87 3d ee 8f 29 3e
       0.16620046 0.05101762 0.066186495 0.16558811
000060 61 de 2f 3e 0c fa 99 3d 86 38 9a 3d 48 6b 01 3e
       0.17174675 0.07518396 0.07530312 0.12638581
000070 79 75 fd 3d da a8 2e 3e 1a 4e e3 3d a0 0d 72 3d
       0.12375922 0.170566 0.11098881 0.059095025
000080 9d f0 91 3e 0c 66 4e 3e 12 8b 48 3d 3e db 52 3d
       0.28503886 0.20156115 0.048960753 0.051478617
000090 d2 65 9a 3d 8e b5 e6 3d 58 42 1e 3e b0 f0 74 3d
       0.07538952 0.112650976 0.15454996 0.05979985
0000a0 86 2e 20 3e 17 44 74 3d 27 b6 fc 3d 8b 09 97 3c
       0.15642747 0.059635248 0.1233943 0.018437168
0000b0 46 92 5a 3e 43 c5 54 3d 78 e2 b3 3d 4f bd 20 3e
       0.21344861 0.051945936 0.0878343 0.15697215
0000c0 ab 1a 5a 3d 36 16 c3 3d 46 0f b0 3d 93 ff 13 3e
       0.05324809 0.09525721 0.08596663 0.14452963
0000d0 80 ca 7c 3e 97 4b c5 3d 98 26 20 3e ed 94 31 3e
       0.24686623 0.09633558 0.15639722 0.17341967
0000e0 f2 1e 7e 3d 29 95 35 3e c4 b6 b1 3d f8 16 00 3e
       0.06204123 0.17732681 0.08677438 0.12508762
0000f0 1c 6a 85 3d 20 1e d6 3d 9c 65 c6 3d c9 48 83 3d
       0.065143794 0.10454965 0.09687349 0.06410367
000100 e9 f9 55 3d 6e 7b 6f 3e 8d d3 4a 3e f1 d3 18 3e
       0.052240286 0.23386928 0.19807263 0.14924599
000110 50 c5 60 3e e2 fc 62 3d 4a ff 45 3d 66 d3 42 3d
       0.21950269 0.05541695 0.048339166 0.047564887
000120 0d c4 d1 3d 58 c0 8e 3e 36 ac 51 3d 3f 59 70 3d
       0.10242472 0.27881122 0.051189624 0.05867886
000130 8d e9 24 3e d8 fa 40 3d fb 6c ab 3d a2 d8 4b 3d
       0.16104718 0.047114223 0.08370396 0.049767144
000140 6b 1a 04 3e 68 7a 1a 3e d6 ff 4a 3d 4f a7 f9 3d
       0.12900703 0.15085757 0.04956039 0.12190115
000150 7f 5b 0e 3e d3 d2 27 3e 8c 64 36 3e 5b 58 67 3d
       0.1390209 0.16389017 0.17811793 0.056480747
000160 f1 57 0f 3e 7c 43 9a 3d ae cb d5 3d a3 24 e6 3d
       0.1399839 0.07532403 0.104392394 0.11237457
000170 1e 88 92 3d d6 23 18 3e ce dc c9 3d 5d 6c 1a 3e
       0.071548685 0.1485742 0.09856568 0.150804
000180 04 d1 fa 3d 5d 7c c3 3d c1 9f ef 3d 80 8e 12 3e
       0.12246898 0.09545205 0.117003925 0.14312172
000190 8d f2 fd 3d 0a 04 60 3d 05 05 c7 3d 88 3a 00 3e
       0.123997785 0.054691352 0.09717754 0.12522328
0001a0 3d 8c cb 3d 86 19 27 3e f2 f1 d6 3d f2 5f a9 3d
       0.09938858 0.1631833 0.10495366 0.08270253
0001b0 85 fa 3f 3e d6 e4 03 3e cf 3d 18 3e a9 49 af 3d
       0.1874791 0.12880263 0.14867328 0.085589714
0001c0 c7 4f f8 3d 46 1b cc 3d 8e 5a 0c 3e 99 33 81 3d
       0.12124591 0.099661395 0.13706419 0.063086696
0001d0 60 4a 54 3d a3 60 1a 3d 44 b1 95 3d f2 46 e7 3d
       0.051828742 0.037689816 0.07309201 0.112928286
0001e0 d4 97 bf 3d db 61 19 3e 44 9d a9 3d 2c a7 fd 3d
       0.09355131 0.14978735 0.08281949 0.12385401
0001f0 4d 71 76 3e 2f 19 22 3e e2 79 e4 3d 78 a7 f6 3d
       0.24066658 0.1582992 0.1115606 0.12043661

pathway1.3.weight f4 [64, 128]
000000 1c ce 4b 3d 99 a1 21 bd e7 7c e8 bb 30 29 49 bd
       0.049757108 -0.039460752 -0.0070949676 -0.049111545
000010 32 a3 1c 3a d5 52 32 bd 03 57 a0 3d 3a 4b 51 3c
       0.0005975246 -0.043536026 0.07829096 0.012774283
000020 10 5a 95 bd 1e 9c 4f 3d d5 17 c3 bc 9b 0a b6 bd
       -0.07292569 0.050685994 -0.023815075 -0.088887416
000030 ec 2b d1 bc ce b0 d2 3d 96 e1 88 3b 3a 6a 07 3d
       -0.025533639 0.10287629 0.0041772826 0.03306029
000040 98 a6 aa bd 4b e8 75 3d c7 96 1a bb 11 2e c0 3d
       -0.083325565 0.060035985 -0.0023588405 0.093837865
000050 ae b1 9a bd c1 54 be 3c bf 35 8d 3d 1c b5 19 3d
       -0.07553421 0.023233773 0.06895017 0.037526235
000060 fa af f8 bc 77 99 55 bd 88 67 67 bd 24 f4 72 3d
       -0.03035735 -0.05214831 -0.05649522 0.059314862
000070 4d 37 9b bd 88 3e 1d 3c 59 c7 91 3d 1c de 86 b9
       -0.07578907 0.009597428 0.07118101 -0.00025723956
000080 a9 cb b3 3c e1 6b b6 3d 50 af 87 3d 09 b4 15 bd
       0.021947699 0.08907295 0.06625235 -0.036548648
000090 c1 5e 6e bd 4a b8 a5 3d a6 26 63 bc 08 4a 90 3c
       -0.058195833 0.08091791 -0.013864195 0.017613426
0000a0 f0 ef 8a bd 85 ff 1c bd 77 db 9e 3d cd c5 4f 3d
       -0.06784046 -0.03832962 0.07756703 0.050725747
0000b0 a6 49 cc 3d a8 58 42 3d f8 7a 5b bd 19 7d 3c 3d
       0.09974985 0.04744783 -0.05358407 0.04601774
0000c0 a8 ae b2 bc 8c 82 18 bd 54 80 48 3d 03 6c 87 3d
       -0.021811798 -0.037233874 0.04895051 0.066123985
0000d0 1f ae 16 3c 70 6f 4f bc 0c 55 b6 3d bb 72 b1 bd
       0.009196787 -0.012660846 0.0890294 -0.08664461
0000e0 c2 4e 9e 3d 9d 96 8b bc 26 be ad 3d 32 ba 4d bd
       0.077298656 -0.017039591 0.084835336 -0.050226398
0000f0 48 88 9f bd a6 ba 0f bc d4 14 26 bc 4b 73 f4 bc
       -0.077896655 -0.008772528 -0.010136802 -0.029840132
000100 01 33 8d 3d da 82 8b 3c 47 de 9f bc 5f a9 90 bd
       0.06894494 0.017030168 -0.01951517 -0.07063555
000110 5f 39 a2 3d af 25 b7 3b 2a 91 07 bd 14 40 78 bc
       0.07921099 0.005589209 -0.033097424 -0.015151996
000120 95 d4 6a 3d a1 28 2a bd fb 7c 85 bd 6c b6 14 3d
       0.05733164 -0.041542653 -0.06517979 0.036306784
000130 77 61 4a 3c 43 60 b3 3c 62 92 33 3c 41 ad 74 bc
       0.012352339 0.021896487 0.010960193 -0.014933885
000140 d1 6c 73 bd a4 56 96 bd f3 75 74 3d 6b 08 62 3d
       -0.059429947 -0.07340744 0.059682798 0.05518381
000150 f2 6b 9e 3d 8c 0b d3 bb 42 28 8e 3c ff 47 e1 3d
       0.07735433 -0.0064405855 0.01735318 0.1100006
000160 47 cc 25 3d 7c 60 3f 3d 0a bd a3 bc e5 0f b8 3b
       0.040478017 0.046722874 -0.019987602 0.005617129
000170 d0 64 19 3d 99 10 2f bd e8 6f 5e 3d d2 9c a2 3c
       0.037449658 -0.042740438 0.05430594 0.019850168
000180 0e 14 e0 bc 65 82 75 bd ee 54 fe 3b ab 2a 37 3c
       -0.027353313 -0.059938807 0.0077615893 0.011179606
000190 72 1d 5d bc 6d 9f 39 3d 61 52 ba 3d 41 83 ee 3c
       -0.01349579 0.045318056 0.09097744 0.029115321
0001a0 f8 ee 87 3d 66 ad 5f 3b be d0 aa bd d5 c1 8f bd
       0.066373765 0.0034130453 -0.08340596 -0.070193924
0001b0 26 fc 93 bc 26 e0 41 3d fa 6c 49 39 ad a9 5e bc
       -0.01806457 0.047332905 0.0001920945 -0.013590259
0001c0 f6 9d 43 bd 4c ac 9e bc 38 c7 d8 bc cd 19 5f bc
       -0.047758065 -0.019369267 -0.026462182 -0.013616991
0001d0 87 3c 20 bd c9 87 06 bc f0 54 94 bb 5f 63 bb bd
       -0.039120223 -0.008211085 -0.004526727 -0.09149813
0001e0 c4 05 81 bd 97 33 10 3d 11 fd d1 bd 9c 2a 08 3d
       -0.06299928 0.03520545 -0.10253347 0.03324376
0001f0 01 b4 00 3c 04 1c 5f 3d e4 5b ae 3c 79 6b b4 bb
       0.007855416 0.054470077 0.021284051 -0.005505976
000200 94 c3 38 bd e0 23 bc 3d 50 0d 43 3c c4 48 93 3c
       -0.045108393 0.0918653 0.011905029 0.017979033
000210 3b 3c 0e 3d 27 71 88 bc 76 da 59 3d 37 b7 9c bc
       0.03472541 -0.016655518 0.053186856 -0.019130332
000220 ba ad 9f 3d 24 f3 bc bc cf 29 ac bc ea ce 9f 3d
       0.077968076 -0.023065157 -0.02101603 0.078031376
000230 1c 60 40 bd 33 92 bc bd 66 7a c5 3a 67 ea fe 3c
       -0.046966657 -0.09207573 0.0015066385 0.031117631
000240 c6 9a 2c 3d 86 d6 43 3d 71 95 96 3d cf 14 d5 bd
       0.04213979 0.047812007 0.073527224 -0.104043595
000250 40 9d ad ba 1f 84 78 3d 73 3f 9c 3c 54 6b 1b 3a
       -0.0013245717 0.060672875 0.019073224 0.0005928774
000260 67 83 5c bd 71 5c fe bb 25 9f 41 3d 04 f1 5a 3d
       -0.053836253 -0.0077624847 0.047270913 0.053452507
000270 f9 5a 9c 3c a8 49 6a 3d 71 94 1a 3d ef 61 08 3c
       0.019086348 0.05719915 0.03773922 0.00832413
000280 d0 e9 2b bd 88 d4 97 3d f4 47 05 3d 66 7a 60 3d
       -0.041971028 0.07413584 0.032539323 0.05480423
000290 ff 55 70 3d 09 8d 7c bd 4e 69 8b bd 10 4a 24 bd
       0.058675762 -0.06165794 -0.06807195 -0.040109694
0002a0 94 2b 04 bd 59 2a 8f 3b 7a d6 bb bc 10 44 3c bd
       -0.03226812 0.004369062 -0.022929419 -0.045963347
0002b0 52 dc 2d 3d 7a f2 07 bb 3d c4 9a 3d ae 9a a7 bd
       0.042446442 -0.0020743893 0.07556961 -0.081838
0002c0 80 89 10 3d c9 12 12 bd fa a8 3d bd 61 cf b7 3b
       0.03528738 -0.035662446 -0.046303727 0.0056094383
0002d0 6b c9 22 3d 98 1c 7f 3d 29 0f b2 bc ea 7a dc bc
       0.03974287 0.06228313 -0.021735745 -0.026914079
0002e0 94 95 22 3d 29 9c c4 b9 a8 e3 9f bc 34 58 6b bd
       0.03969343 -0.00037500382 -0.019517735 -0.057457164
0002f0 6b 02 19 bc 7c 5b 7e bd 61 1c a4 3d b2 70 87 bd
       -0.009338955 -0.062098965 0.08013225 -0.06613292
000300 2c 33 2d bd fa 5c 94 bd 61 42 79 3c 98 be 55 bd
       -0.04228513 -0.07244296 0.01521358 -0.052183717
000310 9a a8 05 bd 21 2a 15 3d a3 e7 af 3d 7d 36 e0 3a
       -0.032631494 0.03641713 0.08589103 0.0017106083
000320 4b 4b fa bb f9 a0 80 bd c7 23 31 bd 9e c8 42 bd
       -0.00763837 -0.06280703 -0.04324701 -0.047554605
000330 1e 07 8b bd ba 0f 2c 3c 4f 3d 9b 3d c5 38 3c bd
       -0.06788467 0.010501796 0.07580053 -0.045952577
000340 73 10 9f 3c ce fd da bd 1f 0b b2 bd ae 47 38 3d
       0.019417023 -0.10692941 -0.086935274 0.044990234
000350 94 dd 63 bd 63 ad 92 3d 1c 36 45 3c d4 4d c2 bd
       -0.055631235 0.07161977 0.012036826 -0.09487501
000360 af 1e 78 3d 06 80 69 3c 03 1d 02 3c 3d 7d 37 bd
       0.060576137 0.014251715 0.007941487 -0.04479717
000370 f8 6f ad 3d 88 d8 85 bd df e7 3e 3d 32 de 1d 3d
       0.08468622 -0.06535441 0.04660785 0.03854198
000380 ef ed 0e bd ba b8 6e bd 06 db 6c bb 90 f0 ab bc
       -0.03489488 -0.058281638 -0.003614129 -0.020988733
000390 5f 90 fe 3c 32 32 a5 3c ba 6d 58 3d a3 c9 b4 3b
       0.0310747 0.020165537 0.05283902 0.005517201
0003a0 aa 02 39 bd 18 af 5a bd 05 b0 47 3d 30 c8 9c bd
       -0.045168556 -0.05338964 0.04875185 -0.0765537
0003b0 b0 45 87 bc 0d a1 ac 3d ca bd 0b 3d 33 1a 87 3c
       -0.016512722 0.084291555 0.034116544 0.016491985
0003c0 0b 08 08 3c e6 ef 69 bd ee a1 37 3c 51 1a a5 3d
       0.008302699 -0.05711355 0.011208041 0.0806166
0003d0 9f 21 3c 3b 74 70 38 3b e9 82 99 3b cd f2 31 3d
       0.0028706563 0.00281432 0.004684795 0.043444443
0003e0 ab 63 82 3c 38 4d be 3c 28 eb 18 3d 7b b6 1d 3c
       0.015916666 0.02323018 0.037333637 0.009626026
0003f0 44 f9 8c bb 42 4e 18 3d 53 8d 8c 3d 28 85 a9 bd
       -0.0043021757 0.037184007 0.06862893 -0.08277351

pathway1.3.bias f4 [64]
000000 29 b1 93 3d 41 1d cb bd 81 14 99 bd 7a ce 8b bd
       0.07211525 -0.09917689 -0.07474614 -0.06826492
000010 86 1f 28 3d 8a fd f7 bc 56 3a c5 3c 57 b4 28 3c
       0.041045688 -0.030272264 0.024075668 0.010296903
000020 94 a8 c5 bd 33 40 89 bc 00 50 99 3d e0 38 90 bd
       -0.09651294 -0.016754245 0.07485962 -0.07042098
000030 2f 59 ff 3c d3 b3 96 3d 3f 04 07 bd d3 4f ae bd
       0.031170456 0.073585175 -0.032963034 -0.08511319
000040 94 07 4a bd bb 56 b8 3d 90 61 61 3d 72 b3 4f bd
       -0.049323633 0.090009175 0.055024683 -0.05070824
000050 ab ae 21 3c 46 e7 ba 3d ec 07 7b bd af 04 69 3d
       0.009868304 0.09126143 -0.06128685 0.056889232
000060 4d 72 a7 bd 0d 31 8d 3d f3 51 b3 3c a2 45 1b 3d
       -0.08176098 0.06894121 0.021889662 0.037908204
000070 98 7c 75 3d 9c c2 4d bb 3e 28 9f 3d e6 55 e3 3b
       0.059933275 -0.0031396514 0.077713475 0.00693773
000080 82 39 05 bd 6b 0f 03 3d 06 63 68 3d 39 7c 92 3d
       -0.032525547 0.031997126 0.05673506 0.071526
000090 3e 71 c9 bd 36 4d a8 ba 5f f7 55 bc fb 90 11 3d
       -0.09836052 -0.0012840393 -0.013059466 0.035538655
0000a0 77 7a 57 bd c0 ca c5 3d e5 df 0e 3d 02 ba 95 bc
       -0.052607026 0.09657812 0.03488149 -0.018277172
0000b0 00 fb 5d bd 63 6c 87 3d c5 9d 77 3d 5b d1 b8 bd
       -0.05419445 0.0661247 0.060453195 -0.090243064
0000c0 b6 b8 3a bc 36 56 3d 3c 68 f0 d6 bc 19 26 78 3d
       -0.011396578 0.011556199 -0.026237682 0.060583208
0000d0 4e 57 54 3d e4 d7 03 bd 3d 5c 98 bd 07 ae 03 bd
       0.051841073 -0.03218831 -0.07439468 -0.032148387
0000e0 ae 9d 98 bd 7c 4e 32 3d b2 d5 70 3d 63 c1 53 3d
       -0.0745195 0.04353188 0.058797546 0.0516981
0000f0 72 27 b6 bc 45 8d 34 3c f2 19 00 bd 17 fc 2c 3c
       -0.022235606 0.011020009 -0.031274743 0.01055815

pathway2.0.weight f4 [128, 13]
000000 e1 65 f2 bd 78 54 0a 3e f5 dd 3d bc 6e 74 3c be
       -0.11835838 0.13508785 -0.011588563 -0.1840379
000010 02 25 42 3e 11 0f 5d be 52 fe 5e be 05 d7 33 be
       0.1895943 -0.21587779 -0.21776703 -0.17562492
000020 83 e5 3e 3e f4 a6 ed bb b4 04 34 be a1 cb 8a be
       0.1864224 -0.0072525684 -0.17579919 -0.27108482
000030 2e 5c f1 bc c4 c0 66 3e d9 f0 5e bd dd b5 cd ba
       -0.0294629 0.22534472 -0.05442891 -0.0015694458
000040 ed a8 97 bd 1f d6 5a be c6 91 27 be ae d2 56 bd
       -0.07405267 -0.21370743 -0.16364202 -0.052447014
000050 9e 6b 08 be bd 71 8c 3d fd a2 92 3e 8c c9 1e be
       -0.13322303 0.06857631 0.28639975 -0.15506572
000060 c2 8f 54 be 7f 30 57 3d da 13 40 be c0 db 21 3d
       -0.20757964 0.052536484 -0.18757573 0.03951621
000070 4a 25 8a be cb 31 54 be b6 59 df bd 5d da 51 3e
       -0.26981574 -0.2072212 -0.10905783 0.20493455
000080 0a 0b 63 bd 00 4d 16 bc 19 d7 c1 3d fd 2e 4c 3e
       -0.05543045 -0.009173632 0.09464855 0.199398
000090 b3 c4 24 3c e3 43 ad bd a2 5e 01 be b7 c4 57 be
       0.010056662 -0.08460214 -0.12633756 -0.21071135
0000a0 eb 70 06 bd 2e ad c3 ba 9e e8 37 3d 4c e0 e9 3c
       -0.03282253 -0.0014928931 0.044899575 0.028549336
0000b0 34 c0 9a 3d c1 fd f5 3d 94 c3 14 3d 38 b2 2a be
       0.07556191 0.1201129 0.03631933 -0.16669548
0000c0 fa 58 5c be 10 1f 82 be c4 8a 88 3d 4c 01 08 be
       -0.21518317 -0.25414324 0.066670924 -0.13281745
0000d0 fd 75 0a bc 6f 44 08 3e a0 fe 79 bd 1e da fb 3d
       -0.008450982 0.13307355 -0.061033845 0.12297462
0000e0 a2 68 87 3d 9b 27 3d bd 0a 71 7d be 77 32 a4 bd
       0.06611754 -0.04618035 -0.24750152 -0.08017438
0000f0 52 be f3 3c 3a d1 8a bd 37 39 f0 3d dc 27 46 be
       0.029753838 -0.06778188 0.11729663 -0.19351143
000100 75 06 8d 3d 16 81 01 be 79 d9 39 be 3a 8d 8b 3e
       0.06885997 -0.12646899 -0.18149365 0.27256185
000110 2c 1b 93 3e 76 f2 26 be ec 39 c2 3d 18 a0 65 3e
       0.28731668 -0.16303429 0.09483704 0.22424352
000120 a6 07 7a 3e fc ac 20 be 56 cb 01 3d 0e 22 36 be
       0.2441698 -0.15690988 0.031688057 -0.17786428
000130 4b 03 65 be 7a ea ec 3d c7 ef 47 be 76 2e 02 be
       -0.22364537 0.1156816 -0.19525062 -0.12713036
000140 d7 52 46 3e 17 13 28 3d 77 ac 85 3e 90 c0 13 be
       0.19367538 0.04103383 0.26108143 -0.14428926
000150 37 d3 15 3e df 1a 17 be f7 de 8f 3d 1f 6e 4a be
       0.14631353 -0.14756344 0.07024949 -0.1976857
000160 d8 99 a2 3d 31 05 f8 3d 1b 9d a0 3d 1f c4 2e 3e
       0.079394996 0.12110365 0.078424655 0.17067002
000170 7a 71 55 be e9 a6 6c 3e ee ac 60 3e 13 61 4c 3d
       -0.20844069 0.23110546 0.21940967 0.049897265
000180 59 85 9c 3c 23 31 62 be c4 e4 49 3d 62 e3 56 3e
       0.019106554 -0.22089057 0.049290434 0.20985177
000190 bd 19 9c 3d 31 05 35 3d 97 52 89 be 9c 3c 0d 3e
       0.07622097 0.044194404 -0.26820824 0.13792652
0001a0 53 40 94 3e 6b e6 f9 bd 43 4c 85 be 9e 01 95 3c
       0.28955325 -0.12202152 -0.26034746 0.018189248
0001b0 e6 b9 f9 3d 10 72 3a be ea 6c 00 3e 66 cd 18 3d
       0.121936604 -0.18207574 0.12541547 0.03730526
0001c0 4a f9 61 3e 84 f2 7c 3e 05 0f 17 be 9a 94 3f 3e
       0.22067752 0.24701887 -0.14751823 0.18709031
0001d0 e3 dc 8b bd 9b 1f 03 bd 95 fa 46 3d 64 98 86 3e
       -0.0682924 -0.032012563 0.048578817 0.2628814
0001e0 c2 4d 65 be 9a fa 1e be 7f 75 88 3e 27 94 8a be
       -0.22392944 -0.15525284 0.26652142 -0.27066156
0001f0 98 46 31 3e d0 b6 5f 3e 90 2f 04 3e 65 13 5e be
       0.17312086 0.21847081 0.12908769 -0.21687086
000200 16 c3 93 be 69 a4 82 be 57 22 15 be a4 0c 80 be
       -0.28859776 -0.2551606 -0.14563881 -0.25009644
000210 3c ea 38 be 6f 60 8e be f4 44 59 be 3b 98 0b be
       -0.18058103 -0.27807948 -0.2121771 -0.1363229
000220 1a 88 3f 3e 93 83 6a be a8 27 a9 3d b9 51 65 3d
       0.18704262 -0.22901754 0.08259517 0.05598614
000230 20 b2 86 3e c4 f9 b8 3d 40 76 90 be 10 67 b1 bc
       0.26307774 0.09032014 -0.28215218 -0.02165559
000240 87 c8 a6 bc a9 16 c5 3b 62 b8 68 be 18 d8 8f be
       -0.02035929 0.006014664 -0.22726586 -0.28094554
000250 b1 2b 46 3e 4e c1 e9 bd c5 91 7e 3e bc 7c 70 3d
       0.19352604 -0.11413823 0.24860294 0.058712706
000260 a8 d9 b5 3c 8e 1d 77 3d 3d 19 31 be b8 40 81 3e
       0.022198513 0.06033092 -0.17294784 0.2524469
000270 e4 4c 51 3d 9b f6 c8 bd b1 1b 29 be b5 06 24 3e
       0.05109872 -0.09812661 -0.1651447 0.16018184
000280 8a 78 54 3c 8f a6 55 be 5d c2 75 bd df 78 aa 3c
       0.012968192 -0.20864318 -0.059999812 0.020809589
000290 67 4c 62 3e 94 4d 11 3e 6b 60 75 3e 0b 35 78 bd
       0.22099458 0.1418975 0.23962562 -0.06059746
0002a0 00 fa ff bd ae 83 2b 3e 65 14 1f be f5 2c 1d 3e
       -0.124988556 0.1674945 -0.15535124 0.15349181
0002b0 97 34 df bd 47 da cc 3d 07 8d 34 bd ca 8f 30 3d
       -0.108987026 0.100025706 -0.044079807 0.043105878
0002c0 14 e0 7f be 15 14 be 3c 24 7c 03 be 66 b2 89 3e
       -0.24987823 0.023202935 -0.12840325 0.2689392
0002d0 72 6b 49 bd 93 32 4a 3e 49 5c d5 bd a6 bb 4e 3c
       -0.049174733 0.19745855 -0.104179926 0.012617981
0002e0 84 7c c7 bd d5 93 78 bc a1 a5 65 be 3a 32 34 3e
       -0.09740546 -0.015171965 -0.22426464 0.17597285
0002f0 60 06 7d 3e c6 73 dc bd ce 66 55 be b5 34 8e 3c
       0.24709463 -0.107642695 -0.20839998 0.017359117
000300 e6 50 5b 3e e8 df f8 bd 18 d4 75 be 0b 52 63 3e
       0.21417579 -0.12152082 -0.24006689 0.22199266
000310 45 2a d8 bb de 2f 56 3c 3d 3a 95 3c db 23 34 3e
       -0.006596836 0.013072936 0.018216247 0.17591803
000320 8d cb c6 3d 73 84 13 3e 1e c5 2f be 2f 93 92 3d
       0.09706793 0.14405994 -0.17165038 0.07156979
000330 a5 62 4f 3e 92 ec 8c 3e 87 0b 8e be 17 c3 b0 3d
       0.20252474 0.2752424 -0.2774317 0.086309604
000340 0e ba 35 bc da e7 f4 3d 65 30 8c 3d 21 f7 0e 3e
       -0.011091722 0.11958285 0.06845168 0.1396146
000350 91 a0 8f 3e 7a 05 fa 3d 01 0f bb 3d d5 6b 85 bd
       0.2805219 0.12208076 0.09133721 -0.06514708
000360 cf d0 41 be 74 2f 96 be fb c2 6a 3c 2b eb 97 be
       -0.1892731 -0.2933308 0.0143287135 -0.29671606
000370 a9 30 35 be 54 67 11 3c 39 c3 43 be a9 55 91 3d
       -0.17694344 0.008874733 -0.1911744 0.070964165
000380 bb 93 56 3d a8 50 13 be 11 c8 65 3e 5d db 1e be
       0.05238698 -0.14386237 0.224396 -0.15513368
000390 bd f4 b5 3d e9 66 1f be 91 75 76 bd e3 71 1c 3e
       0.08884571 -0.15566601 -0.060170714 0.1527782
0003a0 a0 21 79 bd 28 87 28 be bc 10 07 bd ea 19 71 be
       -0.060823083 -0.16457808 -0.032974944 -0.23545042
0003b0 f1 8f 95 be 3a 85 a4 bd 62 6b 81 3e 1e 2f e9 3c
       -0.2921138 -0.080332235 0.2527724 0.02846485
0003c0 0a 1c 8e 3e 56 40 57 bd 90 38 98 3d 82 ca 0f 3e
       0.27755767 -0.05255159 0.074326634 0.14042094
0003d0 85 16 d4 3b 16 86 1e 3e 1e 98 86 3d 85 66 08 3e
       0.006472411 0.15480837 0.06571983 0.13320358
0003e0 b1 7d 8e 3e 8b 3f 05 bd ed a7 8a bd fe 3d cf bd
       0.2783027 -0.032531302 -0.067703106 -0.10119246
0003f0 92 34 01 3d 4a 61 21 3e 88 72 e1 bd 5e b3 7e 3e
       0.031544276 0.15759769 -0.11008173 0.2487311

pathway2.0.bias f4 [128]
000000 b8 ce 1f be f6 ee f0 bb 3a f4 32 3e c2 b4 5f be
       -0.156062 -0.007352705 0.17475978 -0.21846297
000010 16 d0 99 3b 01 17 97 3d cb 30 53 be 7d 07 7f 3e
       0.004693995 0.073774345 -0.20624082 0.249052
000020 7b b8 fb 3c 11 5c 12 be c8 6b ca 3c f6 0b 17 be
       0.030727616 -0.14292933 0.024709597 -0.14750656
000030 42 18 89 be aa 5f 15 be 3a 5a 41 bd b1 74 73 bd
       -0.2677632 -0.14587274 -0.047205187 -0.059437457
000040 21 f7 3f be 7c 82 62 3d 45 35 7f 3e ec bc 28 be
       -0.18746616 0.05530022 0.24922664 -0.16478318
000050 92 92 51 3e e4 ae 46 3d a1 96 2e 3e bf 27 69 be
       0.20466068 0.048506632 0.17049648 -0.22769068
000060 8e cd 62 3e 9f 71 30 bd 66 f7 68 be d2 06 45 3e
       0.22148725 -0.043077108 -0.22750625 0.19240883
000070 6e 6e 7b bd a3 6a 30 3e 01 d0 5c be f6 21 70 be
       -0.06138461 0.17228179 -0.21563722 -0.23450455
000080 51 49 7b 3e e8 2a 41 3e 24 4e 0a be 3b b6 c6 bd
       0.24539687 0.18864024 -0.13506371 -0.097027265
000090 2d f6 78 be 5c 79 41 3d a3 ae dc bd 74 91 26 3e
       -0.24312659 0.047234878 -0.10775497 0.16266423
0000a0 dd 96 c5 3d 95 9a 53 3d 0f 36 2e 3e 47 6b 8e 3e
       0.096479155 0.051661093 0.17012809 0.2781622
0000b0 01 cf c5 3d 2e ef 7a 3e fc 5a 9e b9 5b c8 b9 3d
       0.096586235 0.24505302 -0.00030203897 0.09071418
0000c0 5f d3 f7 bd b3 5f fe bd 04 e8 57 3e 6d ef 2c 3e
       -0.12100863 -0.12420597 0.210846 0.16888209
0000d0 cd 68 43 bd dd 13 da 3d 71 4a 46 be 8b 1d dd 3d
       -0.047707368 0.1064832 -0.19364335 0.107966505
0000e0 d5 ba 4c be cd e9 4b 3e e3 b4 71 bd ef 5c 93 3d
       -0.19993146 0.19913407 -0.059010398 0.0719546
0000f0 af f3 c4 bd 70 cd 6b be 4c 0a 36 3e 9e 1a ed 3c
       -0.096167915 -0.23027587 0.17777365 0.028943356
000100 1b 6e a9 3c 45 35 e8 39 a0 44 0c 3e 3b 79 bc 3d
       0.020682385 0.00044290177 0.13698053 0.092028104
000110 b1 e5 51 bd 10 ba 87 3e d7 dc 35 bd 4c 26 5d 3d
       -0.05124444 0.26509142 -0.044400062 0.0539916
000120 d0 c5 2a be fe 41 7d bd 5f b0 e1 3d 7c 82 40 be
       -0.16677022 -0.061830513 0.11019968 -0.18799776
000130 47 38 fe 3d fa 9f 0e 3e fe c4 b0 3b f1 95 51 be
       0.12413078 0.13928214 0.005394577 -0.20467354
000140 e4 ff 31 3c e1 93 1b be ee 22 7c 3d 90 90 d9 bc
       0.010864232 -0.1519313 0.06155675 -0.02655819
000150 7b 63 25 bd ee cd 8e 3e 78 c1 50 be 78 68 0b 3e
       -0.040378075 0.27891487 -0.20386302 0.1361407
000160 43 db 7a 3d 86 8c b7 3d dc 91 29 3e 94 ab 68 be
       0.06124426 0.089623496 0.16559547 -0.22721702
000170 2a 03 02 be 73 1e 14 3e 2a 46 69 bd 4f c8 56 3e
       -0.1269652 0.1446474 -0.05695168 0.20974849
000180 aa 54 08 3e 08 39 ee 3d 6f 47 9a 3d 9f be 52 3e
       0.13313547 0.116319716 0.07533156 0.20580529
000190 65 70 fd 3d 85 a3 37 3e b7 b8 b2 3d 18 da a3 bd
       0.12374953 0.17933472 0.08726638 -0.080005825
0001a0 d1 d7 30 be 26 21 72 bd 36 8e ce bd 85 e0 09 bd
       -0.17269827 -0.059113644 -0.10085718 -0.033661384
0001b0 be e0 75 be ab 2e ce 3d df 29 71 3e 41 d4 1d 3e
       -0.24011514 0.10067495 0.23551129 0.15413
0001c0 d9 b7 fb bd 06 c0 13 be 4b 3a a7 bd 72 8b d7 3d
       -0.122909255 -0.1442872 -0.081654154 0.10524644
0001d0 81 4c b7 3c 8f 1f 02 be 49 03 71 be dc da 30 be
       0.022375347 -0.12707351 -0.2353641 -0.17270988
0001e0 b9 44 fc 3d 56 82 2a be 6c f3 6a 3e 32 8c 4f 3e
       0.12317795 -0.16651282 0.2294442 0.20268324
0001f0 ea 41 7f be f5 fe 44 3d 2c 59 dd bd 37 c2 99 bc
       -0.24927488 0.04809471 -0.10808024 -0.018769367
